Model: "sequential_1"
_________________________________________________________________
Layer (type)                 Output Shape              Param #   
=================================================================
embedding_9 (Embedding)      (None, 100, 100)          1000000   
_________________________________________________________________
conv1d_7 (Conv1D)            (None, 99, 1)             201       
_________________________________________________________________
max_pooling1d_6 (MaxPooling1 (None, 49, 1)             0         
_________________________________________________________________
flatten_7 (Flatten)          (None, 49)                0         
_________________________________________________________________
dense_15 (Dense)             (None, 32)                1600      
_________________________________________________________________
dense_16 (Dense)             (None, 1)                 33        
=================================================================
Total params: 1,001,834
Trainable params: 1,001,834
Non-trainable params: 0
_________________________________________________________________
None
Epoch 1/10
1/1 [==============================] - 2s 2s/step - loss: 1.9265 - acc: 0.1200 - val_loss: 1.2268 - val_acc: 0.2350
Epoch 2/10
1/1 [==============================] - 0s 71ms/step - loss: 1.1671 - acc: 0.2450 - val_loss: 0.7255 - val_acc: 0.2500
…
