Model: "model_1"
_________________________________________________________________
Layer (type)                 Output Shape              Param #   
=================================================================
input_4 (InputLayer)         [(None, 28, 28, 1)]       0         
_________________________________________________________________
conv2d_6 (Conv2D)            (None, 28, 28, 12)        120       
_________________________________________________________________
max_pooling2d_2 (MaxPooling2 (None, 14, 14, 12)        0         
_________________________________________________________________
conv2d_7 (Conv2D)            (None, 14, 14, 8)         1544      
_________________________________________________________________
max_pooling2d_3 (MaxPooling2 (None, 4, 4, 8)           0         
_________________________________________________________________
conv2d_8 (Conv2D)            (None, 4, 4, 8)           1032      
_________________________________________________________________
up_sampling2d_2 (UpSampling2 (None, 16, 16, 8)         0         
_________________________________________________________________
conv2d_9 (Conv2D)            (None, 14, 14, 12)        876       
_________________________________________________________________
up_sampling2d_3 (UpSampling2 (None, 28, 28, 12)        0         
_________________________________________________________________
conv2d_10 (Conv2D)           (None, 28, 28, 1)         109       
=================================================================
Total params: 3,681
Trainable params: 3,681
Non-trainable params: 0
_________________________________________________________________

Epoch 1/10
48/48 [==============================] - 20s 368ms/step - loss: 0.0938 - acc: 0.8078 - val_loss: 0.0663 - val_acc: 0.8088
Epoch 2/10
48/48 [==============================] - 14s 291ms/step - loss: 0.0628 - acc: 0.8058 - val_loss: 0.0593 - val_acc: 0.7986
…
