Model: "sequential_2"
_________________________________________________________________
Layer (type)                 Output Shape              Param #   
=================================================================
conv2d_16 (Conv2D)           (None, 32, 32, 32)        896       
_________________________________________________________________
batch_normalization (BatchNo (None, 32, 32, 32)        128       
_________________________________________________________________
conv2d_17 (Conv2D)           (None, 16, 16, 32)        9248      
_________________________________________________________________
conv2d_18 (Conv2D)           (None, 16, 16, 32)        9248      
_________________________________________________________________
batch_normalization_1 (Batch (None, 16, 16, 32)        128       
_________________________________________________________________
up_sampling2d_6 (UpSampling2 (None, 32, 32, 32)        0         
_________________________________________________________________
conv2d_19 (Conv2D)           (None, 32, 32, 32)        9248      
_________________________________________________________________
batch_normalization_2 (Batch (None, 32, 32, 32)        128       
_________________________________________________________________
conv2d_20 (Conv2D)           (None, 32, 32, 3)         99        
=================================================================
Total params: 29,123
Trainable params: 28,931
Non-trainable params: 192
_________________________________________________________________

Epoch 1/10
36/36 [==============================] - 60s 2s/step - loss: 0.0140 - acc: 0.5669 - val_loss: 0.0471 - val_acc: 0.4976
Epoch 2/10
36/36 [==============================] - 59s 2s/step - loss: 0.0041 - acc: 0.6951 - val_loss: 0.0454 - val_acc: 0.5098
…
